model_weights.pth (torch, 818916 bytes, 16 tensors)

conv1.weight f4 [10, 3, 3, 3]
00000000: 8250 893e 698a 7b3e 04eb 6c3e 50cb b9be
00000010: b469 b93d d161 35bd 22b8 0bbf 6232 98be
00000020: 2314 96be bb1f 6e3e 3344 a63e ff38 9f3e
00000030: 6282 a3bd 6871 06bd 9bff e0bd 16cd 09bf
00000040: 5edb b4be bf6e a0be e329 2e3e 8724 3d3e
00000050: f31b e03e 4d25 21be 3da7 063e f78a d83d
00000060: da98 a5be 32e4 bcbe 6d21 afbe afff 3bbe
00000070: 51de 95be c7a1 eebd 4555 23be 2675 9e3c
00000080: 8f54 603e 29e6 d9be bf0e 983e b558 943e
00000090: 9e3a b1be 276f 84be 0edc 0bbd 9698 65be
000000a0: 0f4f e43d 16d2 f73e 11f1 9abe 5113 323e
000000b0: 1fed 073f a223 a7be 65d8 35be f367 fcbd
000000c0: 98b0 65be 84a0 fabd 0e51 c83e 0f90 c0be
000000d0: b2f7 873e d180 ac3e 0059 3a3e 1ff9 66bd
000000e0: b63a 06bf ef12 953c 46d0 9e3e 1ce4 803d
000000f0: 1de7 11be 1da4 7c3e b6a3 ad3e 64d3 733e
00000100: 5481 93be ddd2 8abe 0858 973e aef6 f73e
00000110: 0ad8 5fbe 355c c8be c176 d23e 3115 e53d
00000120: 4b5b 933e 8ea4 1ebd fa19 09bf 4818 aa3e
00000130: 36db fc3e e9d1 b1bc 9355 2abe 4830 dd3d
00000140: f52a 683e c04f ee3e 690b 10be 3755 bbbe
00000150: 6b25 bd3e c535 a6bd d76d c4bd 8ab5 d23e
00000160: 61da 0ebe 4f5c 84be 44e0 fd3e 38b3 093d
00000170: cd7b 01be a523 e53e 4117 3dbe fe5b 28be
00000180: 4c75 b93e 0835 3bbe 7895 9abe 3ea3 523e
00000190: 3d9f 6fbe 01bc e4be b50d 933e 0e91 76be
000001a0: 38a4 b1be 25cc 493e c2bb 8bbd f0a0 d5bd
000001b0: b571 0e3e 8fe2 003f 3dd2 ad3e 9c02 37be
000001c0: e172 923e 694e 5abd d158 7c3e 946c c93e
000001d0: 1706 e0bb cb40 623e 7f3d f63e 7f7c 1f3e
000001e0: 4bdf 0abb 2d59 023f 458f 86be 7e90 fe3e
000001f0: 4a56 b53e e0ca a93c 178f 4dbd f7ed 803e
00000200: 4353 453e b612 603d c1ec b63e 1832 7fbe
00000210: 773b 003f f25f e73e 3c5b 9bbb fe08 a2be
00000220: 7079 1fbf 549e 5ebe 98a7 343e 26e5 d23d
00000230: f3e6 15bd 8426 d03e b4e8 b63e bd98 2a3e
00000240: cdbd e2bd d497 24bf 29b7 bfbe 0ce8 11be
00000250: dbec 1dbc c398 0d3e b755 883e 0010 a13e
00000260: 87f1 333d 8ac9 a9be 3aed aabe 7255 33be
00000270: be35 6ebc a0ea 37be db89 9c3e b43f 1e3f
00000280: 3d3a 403d 2c39 b13e 877c 3e3d 6e06 ee3e
00000290: 1e41 8b3e ff31 abbe c6b6 453e 1ab5 533e
000002a0: ce7a f5be 65f7 31be 18b7 913e 5810 e23d
000002b0: 339b 563e 1904 323e 5d7b bfbe c4d1 1dbc
000002c0: d8c2 ae3e 7aa5 e1be 8fa5 ccbe 3034 ef3d
000002d0: 3a3f 193e 34b3 c53e 3f35 b6bc b9d9 cabe
000002e0: be81 743e cafb 9b3e 87e4 98be 43d4 a9be
000002f0: b95b 2e3e cbea e9bd baf0 573e ab14 1bbd
00000300: 23b5 0fbf fedc bb3d 6164 a7bd 7912 92be
00000310: 90b5 a73d 0d88 dcbd bd45 9ebc 231e 8d3e
00000320: 37a9 b5be a69b febe 639a ec3c 1c74 32be
00000330: 023a f2bd 0f73 123e 5d59 97bc 112d 423d
00000340: edf4 133e 2bfa afbe ed75 93be 5534 3e3d
00000350: ab9e fa3d 4125 0cbe 8cab d1bc 9595 603c
00000360: 1713 f03d a002 f43e d0d0 e6bd 8bf6 883e
00000370: 22df ccbd 7a74 82be 65d7 393d 6eff 55be
00000380: c1d2 a8be e7b4 6a3d 02c5 f33e 04c2 65bc
00000390: 3ea5 c03e aff5 623e 38b4 00bf df04 8b3e
000003a0: a0fd f5bd 21c7 9abe 03c7 203d 7362 813e
000003b0: a3e7 033e 4001 b53e 7dd1 343e f4b2 d5be
000003c0: 4c7b 783e 07f4 d3be 6b32 09bf fc99 a73d
000003d0: 9782 0c3e 6218 a43e 4f5b d63e 8c41 fd3d
000003e0: f0ef 59be 9287 b8be 5071 e7be ea4e 5cbe
000003f0: 9e12 503e d392 933e 3acc e73e 4380 ce3e
0.26819235 0.24564518 0.23136526 -0.36287928 0.090533644 -0.044282738 -0.5457784 -0.2972594
-0.29312238 0.23254292 0.32473907 0.31098172 -0.07983853 -0.032822996 -0.10986253 -0.5382856
-0.35323614 -0.31334493 0.17008166 0.18470965 0.43771324 -0.15736885 0.13149734 0.105733804
-0.3234318 -0.3689285 -0.3420519 -0.18359254 -0.29271176 -0.1165195 -0.15950496 0.01934297
0.21907257 -0.4255841 0.2969875 0.28973928 -0.34615034 -0.25866053 -0.034145407 -0.22421488
0.11147892 0.4840247 -0.30262044 0.17390181 0.53096193 -0.32644373 -0.17758329 -0.12324514
-0.22430646 -0.12237647 0.3912434 -0.37609908 0.26556164 0.3369203 0.18198013 -0.056389924
-0.52433336 0.018197505 0.31018275 0.062935084 -0.14248319 0.24671979 0.33913964 0.23811108
-0.28809607 -0.27114 0.2955935 0.4843039 -0.21859756 -0.39132848 0.41106227 0.111856826
0.28780589 -0.03873115 -0.5355526 0.3322165 0.49385995 -0.021706538 -0.16634206 0.108002245
0.22672637 0.4654522 -0.14066853 -0.3658845 0.3694261 -0.081157245 -0.09591263 0.41154128
-0.13950492 -0.25851676 0.49585164 0.033618182 -0.12644883 0.44753757 -0.18465902 -0.16441342
0.36222303 -0.18281949 -0.3019216 0.20570084 -0.23400588 -0.44674686 0.28721395 -0.24078771
-0.346956 0.19706781 -0.06822921 -0.10431087 0.13910563 0.503457 0.33949462 -0.17872089
0.2860327 -0.053297434 0.24643256 0.3934065 -0.0068366635 0.22095029 0.48093793 0.15574835
-0.0021190222 0.5091732 -0.2628118 0.49719614 0.35417396 0.020726621 -0.05018529 0.25181553
0.19270043 0.054705344 0.35727504 -0.24921453 0.50090736 0.45190388 -0.0047411006 -0.31647485
-0.62294674 -0.21740085 0.17642057 0.10297613 -0.036597203 0.40654385 0.35724413 0.16659828
-0.11071358 -0.6429417 -0.37444428 -0.14248675 -0.00963899 0.13827805 0.26627895 0.3145752
0.04393151 -0.33161575 -0.33384115 -0.17513064 -0.01453918 -0.17960596 0.30573925 0.61815953
0.04693054 0.3461393 0.046505477 0.4648928 0.27198118 -0.33436581 0.19308004 0.20674554
-0.47945255 -0.1737953 0.28460002 0.110382736 0.20957641 0.17384376 -0.37398806 -0.009632532
0.3413303 -0.4407156 -0.3997006 0.11679876 0.14965525 0.38613284 -0.022242187 -0.39619234
0.23877618 0.30465537 -0.29861853 -0.33169755 0.17027177 -0.11421736 0.21087924 -0.037861507
-0.5613577 0.0917301 -0.08173443 -0.2852972 0.08188927 -0.10768137 -0.019320363 0.27562055
-0.35480663 -0.49728125 0.028882211 -0.17427105 -0.1182747 0.14301704 -0.018475229 0.04740626
0.144489 -0.3437055 -0.28800908 0.046436626 0.12237295 -0.13686086 -0.025594495 0.013707538
0.11722391 0.47658253 -0.112702966 0.26750597 -0.10003497 -0.2547949 0.04537143 -0.2089822
-0.32973292 0.05730143 0.47611243 -0.014023308 0.3762607 0.22164033 -0.5027499 0.27152154
-0.12011266 -0.30230048 0.039252292 0.25270423 0.12881331 0.35352516 0.17658038 -0.41738093
0.24265784 -0.41397116 -0.53592557 0.08183667 0.13721691 0.32049853 0.41866538 0.12366018
-0.21282935 -0.36040932 -0.45203638 -0.21514478 0.20319602 0.28822955 0.45273 0.4033223

conv1.bias f4 [10]
00000000: 6ab7 71bd c70d 373e d0df c6be 421d 393e
00000010: 99e8 9dbd f2dc 84be d07d b4be 23f4 fa3d
00000020: c97e acbe 5d7c e03c
-0.059012808 0.1787635 -0.3884263 0.18077567 -0.0771038 -0.25949818 -0.35252237 0.12253597
-0.3369048 0.027403051

norm1.weight f4 [10]
00000000: 90be 623f ee33 ad3f fcac 3f3f f19a 733f
00000010: 961d 0c3f 354a 983f 7456 8d3f cc84 823e
00000020: 2c64 793f 5ee1 893f
0.88572025 1.3531473 0.7487333 0.95158297 0.54732645 1.1897646 1.1042008 0.2549194
0.97418475 1.0771902

norm1.bias f4 [10]
00000000: ea90 94be c6bb bdbe 6530 7bbf b2dd 30bf
00000010: b30a 52bf be24 c0be e92a 21bf 1540 44bf
00000020: a3d0 03bf 8c97 d9be
-0.2901681 -0.37057322 -0.9812072 -0.6908828 -0.82047576 -0.37528032 -0.629561 -0.7666028
-0.5149023 -0.42498434

norm1.running_mean f4 [10]
00000000: 723f 62be 7ee1 f13d e84a 5fbe 678e 273e
00000010: 787b fc3e 46f3 97be 8c29 9abe 7a83 c2bd
00000020: 326f 9fbe c46f 963d
-0.22094515 0.11810587 -0.21805918 0.16362916 0.4931295 -0.2967779 -0.30109823 -0.094977334
-0.31139523 0.07345536

norm1.running_var f4 [10]
00000000: 6114 ea3e 3ec2 d23e f2d7 733e 59a0 b73e
00000010: ee88 ba3f a95c c03e ce33 8e3e a36d 5c3e
00000020: 2b55 c73e 0c20 a93e
0.45718673 0.4116382 0.23812845 0.35864523 1.4573038 0.37570694 0.277739 0.21526198
0.38932166 0.33032262

conv2.weight f4 [20, 10, 3, 3]
00000000: a709 96be 911a 10be c462 d63d aa9d 02bc
00000010: 1751 81be e3f9 eebc 217a a93d f53e 8fbe
00000020: 4c69 273e 2391 253d 9a9a d03e f3d0 c63e
00000030: da8c c2be f0d7 04bf 2e46 743e 2b8e cdbd
00000040: 3e70 01be 3494 bdbe 09bd 103f 00e7 c4be
00000050: 582d c0be 3726 7e3e 7720 733f c1cf 653e
00000060: 5e28 f63d 367c ae3e cf5a b23e 90ad a13e
00000070: 9193 4f3e 36e3 4dbd adec 983d fe9b 5c3d
00000080: a050 e23c 2e98 60bd 0a69 5abe 53a8 f03d
00000090: 63cf 4fbd fde2 82be e3b5 d13c aaf0 803d
000000a0: c25a 44be 9c83 fbbd 219b 3dbe 5454 30bd
000000b0: 1bc8 2e3e f3f9 bf3e a5f9 0a3e ca2c fdbe
000000c0: 939f 16bf dd8a fb3e beab c43e 38c0 9d3d
000000d0: 4d5b cbbd 8876 c33e f7c0 afbe 853f bbbe
000000e0: 04a0 983e bc61 a33e 0abb 833e 5765 8fbe
000000f0: 8e96 733e df27 bf3e 4a9d e3bc 4723 803d
00000100: fe3b b1bd ef0a a13d 2424 233d eb3a 783e
00000110: fdd6 f4bc 7954 113e abb5 ae3e 0eff b23e
00000120: eabe 503e 6cba d83e 3871 3d3e 9a08 abbe
00000130: b628 63be 54a1 c23d 9463 93be 7cef 81be
00000140: d1d2 323e 073b e2be 8b45 bd3e 554a 963e
00000150: 1799 88be fc6e d1be c948 b73d 9a9d 76bc
00000160: f75e b5be 1c14 653d 9f3c 783e 14d6 82be
00000170: 750e 1c3e 5cbf 2a3e 2201 8fbd c011 013f
00000180: 32bf 63be d3a5 98bd 7878 b3bd b8f1 a5be
00000190: da99 67be 2cd8 e33e ab6d 81be afb4 f9be
000001a0: 921c 06bf e85b 543e c6a4 1ebc e87c 71bc
000001b0: 94bf 26be 4bfd 5bbe 3862 d8be 7b6b 013f
000001c0: 5115 d43e ca6c 1dbe 32ea d93d 7e13 c33e
000001d0: 8845 503e 5e9f ffbe 05d3 51bd fa6a 623e
000001e0: ba1f 28bc 77c7 4c3e 4552 1bbe 8c20 b53e
000001f0: 34a1 8f3e f600 763e 4797 1cbf 0726 b6be
00000200: d1ea 33bc 5833 853c cd0b 42be a2b6 c8be
00000210: fb64 c73c d60e 273e 15d6 c9bd 7ec5 cd3e
00000220: 7d73 83be 9874 d3be 986a a93e 71d5 1f3e
00000230: 447c 49be 07b3 403c 5fff 943e bdc6 393e
00000240: 5c10 69be 7599 8cbb 1d65 fb3e fe4e 3fbd
00000250: dfe9 35bd 4199 9c3e d44c 023e c125 083d
00000260: 4a0a c2be 77ad 10be beb3 91be 55aa 0f3e
00000270: 78f6 22bc 8b02 783d bea3 9cbe 0e65 8e3e
00000280: 5ea1 083e e613 d53c 369d 24bf 62bb 90be
00000290: 7f07 fc3d 1f52 56bd 7deb d2be 2b68 babe
000002a0: ad46 ee3c b884 ea3d b078 933d 73c1 78bd
000002b0: 3d8b b9be ea78 de3d a7b8 bd3d 08ab b9be
000002c0: 5327 433e 5567 85be 024c 96be 551d f8be
000002d0: 7138 c63d 240f 3a3e 0194 6e3e ba13 74be
000002e0: 8645 89bd e72e 0bbe bbc6 febb f4e2 2d3e
000002f0: dd69 793d 8d5a 2bbe 1a70 06bf c16e b3be
00000300: 0b51 233f 03c2 573e 914a 48be 3201 533e
00000310: 6422 92be 0368 b2bd ec84 87be a737 aabe
00000320: 7e84 ccbe ba12 f1be 1ec3 8dbb 21aa 023e
00000330: 6679 a63d ae9e 823e 4068 fa3e 530c 29be
00000340: be40 eabe d9bb 1cbe bd58 f2be 49f3 eebe
00000350: 3646 9dbe 30a6 a6bd 900f a1be 5135 87be
00000360: 9202 07bf 7c63 dbbe 8256 c7be cef3 7abe
00000370: 95df edbc e2e1 9ebd fe0e 343d 0c1c 0bbe
00000380: 6387 bf3b 90ee 51be dd6a 72be 96e3 08bf
00000390: 3a4f 853e 708a af3e 7df7 4c3e b5f7 cd3e
000003a0: e3d2 2c3e 895a ca3e febc 01be fb93 553e
000003b0: a6bb 813e 645e c7be 33e3 4ebe 46f1 2dbe
000003c0: 4aad 83be 3f43 903e b451 2b3e 09e6 e63c
000003d0: 16a3 10be 4f7a 26be 5e9c 753c 1c43 183e
000003e0: 7e8e d63d 62a7 da3d a277 d03d bac4 813e
000003f0: dee9 bbbe ffe8 89be be6a 8bbd 29d1 4ebe
-0.2930424 -0.14072634 0.10468057 -0.00797216 -0.2525718 -0.02917189 0.08275247 -0.2797772
0.16348761 0.040421616 0.40742952 0.3883129 -0.37998086 -0.51891994 0.23854896 -0.10036882
-0.12640473 -0.37027133 0.56538445 -0.3845749 -0.37534595 0.24819265 0.9497141 0.22442533
0.12019418 0.3407914 0.34834906 0.3157773 0.20271136 -0.050265513 0.07467017 0.053859703
0.027626336 -0.05483263 -0.21329132 0.11750855 -0.05073489 -0.25563803 0.025599426 0.06295903
-0.19175246 -0.12280962 -0.18516208 -0.04304917 0.17068522 0.37495384 0.13571794 -0.49448234
-0.5883724 0.49129382 0.3841228 0.077026784 -0.099295236 0.3817637 -0.34326908 -0.365719
0.29809582 0.31910503 0.25728637 -0.28007004 0.23787901 0.37335107 -0.027784962 0.062567286
-0.08654021 0.078634135 0.03982939 0.24241225 -0.02988767 0.1419238 0.34122977 0.34960216
0.20385328 0.4232973 0.18500221 -0.33405 -0.22183499 0.09503427 -0.2878691 -0.25378025
0.17463233 -0.4418566 0.3696712 0.29353586 -0.26679298 -0.40904987 0.089494295 -0.015052224
-0.35424015 0.05592738 0.24241875 -0.25553954 0.1523989 0.1667456 -0.06982638 0.5041771
-0.22240904 -0.074535035 -0.08763212 -0.3241098 -0.22617283 0.44500864 -0.25278983 -0.48770663
-0.52387345 0.20738184 -0.00968284 -0.014739253 -0.16284019 -0.21483342 -0.42262435 0.5055463
0.41422513 -0.15373531 0.10640372 0.3810081 0.20339024 -0.49926275 -0.051226635 0.22111121
-0.01026147 0.19997965 -0.15168102 0.35376394 0.28052676 0.24023804 -0.6116833 -0.35575888
-0.010981278 0.016259834 -0.18949814 -0.39201838 0.024340143 0.16314253 -0.09855286 0.40189737
-0.25674048 -0.4129989 0.33089137 0.15608765 -0.1967631 0.011761433 0.29101083 0.18142219
-0.22760147 -0.0042907544 0.4910058 -0.046706192 -0.04441249 0.30585673 0.1272462 0.03323913
-0.37898475 -0.14128672 -0.28457445 0.1402982 -0.009946458 0.0605493 -0.30593675 0.27811474
0.13342807 0.026010465 -0.64302385 -0.28267962 0.12306117 -0.05232441 -0.41195288 -0.364076
0.029086435 0.11451095 0.07200754 -0.060731363 -0.36239043 0.10862906 0.09263735 -0.362633
0.1905797 -0.260554 -0.29354864 -0.4845988 0.09678734 0.18169838 0.23298647 -0.2383565
-0.06702714 -0.1359211 -0.0077751554 0.16981107 0.060891975 -0.16733761 -0.52514803 -0.35045436
0.63795537 0.21070103 -0.19559695 0.20605925 -0.28541863 -0.08711245 -0.264686 -0.33245584
-0.39944834 -0.470846 -0.0043262383 0.12760212 0.08128624 0.25511688 0.4890766 -0.16508608
-0.4575252 -0.15306033 -0.47333327 -0.46669987 -0.3071763 -0.081371665 -0.31457186 -0.26407865
-0.52738297 -0.42849338 -0.38933188 -0.24507067 -0.029037276 -0.077579275 0.04395961 -0.13584918
0.005844997 -0.2050116 -0.23673578 -0.5347227 0.26037008 0.34285307 0.20016284 0.40228048
0.16877322 0.39522198 -0.12669751 0.20857231 0.25338477 -0.38939202 -0.20203857 -0.1698657
-0.25718147 0.28176305 0.16730386 0.028185861 -0.14124712 -0.16257595 0.014990894 0.1486935
0.10476397 0.10676457 0.10179068 0.25345403 -0.36701864 -0.26935574 -0.06807469 -0.20196976

conv2.bias f4 [20]
00000000: f19b 9cbd 1a54 933d 1902 203e ac06 2d3e
00000010: e6a9 89bd 29e5 8b3d 0cce c6bc 668b 12ba
00000020: 30e8 5a3d 4396 373c bd91 3bbc e79e 8bbd
00000030: 26b4 2dbe a79d a9bd 4d6f 77bd 2933 dabc
00000040: abcd 50bd 6d4f babc 2048 623e aa1e d83d
-0.07646931 0.071937755 0.156258 0.16897076 -0.06721859 0.06830818 -0.024268173 -0.000559023
0.053444088 0.011205259 -0.011448321 -0.068174176 -0.16963252 -0.08282023 -0.06040888 -0.026635723
-0.05097739 -0.022742951 0.22097826 0.10552724

norm2.weight f4 [20]
00000000: 4302 843f b436 e73f 6427 b03f 355d cf3f
00000010: fc0d 5b3f 4686 cc3f fbd3 9d3f d84c 7a3f
00000020: 4845 aa3f 0a34 bd3f 5ef5 903f 6870 7e3f
00000030: 5b37 9a3f 28a4 993f 8857 c23f c7ed 943f
00000040: 4cfb 923f e7c8 af3f 5e04 9a3f 1d7e 883f
1.031319 1.8063569 1.3762021 1.620032 0.85568213 1.5978477 1.2330316 0.97773504
1.3302393 1.4781506 1.132488 0.9939027 1.2048143 1.2003222 1.5182962 1.1635064
1.148294 1.3733186 1.2032583 1.0663487

norm2.bias f4 [20]
00000000: fcc2 bbbf 4036 27bf 8779 05bf d372 23bf
00000010: 7de4 76bf 9e13 10bf b21f 66bf 3f7d bcbe
00000020: 081d 09bf be7c 62bf 4a28 cebe d1d7 8fbf
00000030: 628a 1fbf 228c f0be 6b4c 05bf 7a20 60be
00000040: e697 2abf 5108 f3be 3c8a 52bf c86c 78bf
-1.466888 -0.65317154 -0.5213856 -0.6384708 -0.96442395 -0.56279933 -0.89892113 -0.36814305
-0.53559923 -0.8847159 -0.40265113 -1.1237737 -0.6232053 -0.46981913 -0.5206973 -0.21887389
-0.6663803 -0.47467282 -0.8224218 -0.97040987

norm2.running_mean f4 [20]
00000000: ec34 cb3d 2b45 09bf 820e 41bf bc66 06bf
00000010: 7184 663e 4393 42bf 2b0c 07be 3bc0 8ebe
00000020: d018 25bf 7a9a d9be fbc9 45be ca69 5c3e
00000030: 284d 7fbe a1a9 3fbf d2af 0ebf 8e8f 0abf
00000040: 8029 26bf 64b5 06bf d200 f7be ca1f 313e
0.099222034 -0.53621167 -0.7541276 -0.5250051 0.2251146 -0.76005954 -0.13188235 -0.27881035
-0.64490986 -0.4250067 -0.1931533 0.2152473 -0.24931777 -0.7486821 -0.5573703 -0.541253
-0.64907074 -0.5262053 -0.48242813 0.17297283

norm2.running_var f4 [20]
00000000: 9c38 4040 ac88 9a40 583b 2241 f2ee 8340
00000010: ce2b e440 8f0f 1541 1ad1 3a40 0e8a a440
00000020: 27ce 0741 3bd8 8640 7d89 d240 375e 7140
00000030: bb36 e040 5a35 0041 2b7d c340 81df e540
00000040: 6fbb 0341 7496 df40 8656 f240 a102 cb40
3.0034552 4.8291836 10.139488 4.122918 7.1303473 9.3162985 2.9190125 5.1418524
8.48783 4.2138953 6.579283 3.7713754 7.006681 8.013025 6.1090293 7.183533
8.23326 6.987116 7.573062 6.344071

lin1.weight f4 [100, 2000]
00000000: 57ad 32bd aa6c a7bc 1c8a 44bc ca1a 3dbd
00000010: 5973 9bbc f222 933b 3151 1abd ebcb c9bc
00000020: 2d4c 05bd b850 66bc 3b48 003c d6c7 00bd
00000030: 4a3a 8fbd 5103 d3bd 6648 273e 41ea 72bc
00000040: c824 9bbd 4059 ddbc 2ec7 5abd 80ae d5bc
00000050: 24c1 eebc 8e02 3e3c 4239 4a3e ae8e 1b3e
00000060: 8d8b 2a3e e258 e4be 7794 bb3d 1fa4 8abd
00000070: b527 86bd 0ceb adbd a9b0 e2bc dfb6 0f3d
00000080: b3f3 96be 1afb 043e 474d df3c 876e 85be
00000090: d107 cabe 54e2 cfbc 3ab0 94bd cad5 99bc
000000a0: 0743 1e3b 8459 92bc 5f0b 94bd ef80 0dbe
000000b0: 6e44 c0be 8792 d73d 2b4a a8be 9b53 0abe
000000c0: 6c9d e5bc 3563 8fbd 31a8 9f3b 6e8b a2bd
000000d0: f802 8ebe a038 eabe 23d2 99be 9eab 983d
000000e0: 1f60 58bd d871 64be 95ca 5abd f18d c4bc
000000f0: fed6 89bc 3587 5d3d 9b8c a53d 1d05 61be
00000100: e342 15bf d714 d8be 4059 6f3e 5bec b33d
00000110: 3130 193e 4f69 8cbc 6849 5abc 0dfc c4bd
00000120: 2c03 2a3e 7251 843d e4dc c5bd 96d9 f3be
00000130: debe df3d 2a93 9d3e 9a8f 0cbd ac5d 52bd
00000140: ec05 e0bc 5ed5 07bb 8605 0a3d a4ed 023e
00000150: cf92 7f3e db50 e53c 385a eabd e588 fbbb
00000160: a26f 803c d331 8cbc 80eb 34bc 7137 ddbc
00000170: 7466 bd3c 4d06 973b 91d7 65bc 8793 68bd
00000180: afa9 56bd fda1 98bc f6c7 f33c d055 7ebb
00000190: 42db 7ebd 72a3 99bc 3b96 6cbd 4059 03be
000001a0: 82fa 633c b5ca 21bd 04f7 00be 6011 553b
000001b0: 488f 1bbe 4583 fbbd 0783 33bd 6ada 3a3d
000001c0: d88b ec3d 4d50 6fbe 36e1 763d 0845 f93d
000001d0: ead8 ec3e e6e9 9ebe 6bd4 9e3d 4c85 ca3b
000001e0: 1703 b63d 3a68 c13d 2b5f fb3d 373b a2be
000001f0: 227b 073d 6149 cdbd 763d 623c a20b f1bd
00000200: 7b2e a2be f38f a0bd c3af a4bc 590c d03d
00000210: 39b1 9ebe 3a18 303e 25ab 95bd 043b 00bd
00000220: 5bf1 c0be aee1 ddbe eb61 61be f6ce 9bbc
00000230: 9633 8a3c 9750 863d e886 8ebe 569b 91bc
00000240: 2c29 02bf 6f4a 993e 511d cc3e b350 d0be
00000250: f7ac bbbe ea16 edbd 40a6 923c a5db 373d
00000260: 3ed8 afbe 3452 9b3d 4b1b 253e 9030 92bd
00000270: 3ccf a03d 9f56 b03d 189b 93be fce2 85bd
00000280: fb9a ac3d b4fe bfbc 3c4d 303d f35e b23d
00000290: 1d63 0f3f 77d9 02bf 1223 413e 5eff be3e
000002a0: 759b 4dbe ab2e c23c 5212 473d fa91 723e
000002b0: 8c66 56be 5c53 02be d0e6 683e 78b2 093e
000002c0: 4268 4d3d a0f6 ccbd 4e4c 1dbe 5739 b1bd
000002d0: 6a5d c0bd 2d4a 8a3d 0439 88be 769a 003d
000002e0: be33 4a3e 01bb 24bd bf56 a0bc 9844 133e
000002f0: c4d4 0f3e f362 6fbd fa7d 2d3c ce07 023e
00000300: ebf2 993d 999b cfbc 029a c7bc 13e7 00bd
00000310: ed5a 1b3d ba4d 483d b8d9 9f3d 833b 873d
00000320: e632 adbd b93f 633c a4f2 30be 90b2 3dbe
00000330: b758 c93c d07e 9c3c 74e0 703d 7e0d babc
00000340: 2876 673d 6fdb 74bd 1723 87bd 9865 b63c
00000350: dc06 b73d efc0 88be c6aa 4e3e 6c60 8abc
00000360: 6939 9a3d 5e62 babd 7408 fd3d c813 c3bd
00000370: 435a 9bbd 0b18 ae3d 953b 6cbd db0b babc
00000380: 35d4 3abd ae5f a83d 3a9c 1d3c 9049 0dbe
00000390: fc42 82bc 8f3c a8bc 3653 bcbc 2d60 c4bd
000003a0: b3ba 09bd 3427 cf3d 5c75 34be db50 00be
000003b0: bb26 cfbe 3f8c afbe 9245 24bd 9c54 d5bc
000003c0: 1ea5 afbc 233d 343b e89e 083d 8a63 05bc
000003d0: d45a a4be aaca 55be 2adf 49be b631 01bf
000003e0: e449 a8bd b464 55bd 9bf5 abbc 5d27 cf3d
000003f0: 41b1 97be 975a 57be 118f eabe 7426 b6be
-0.04362234 -0.020437557 -0.0119958185 -0.046168126 -0.0189759 0.00449025 -0.037675086 -0.024633368
-0.03254335 -0.014057331 0.007829721 -0.03144058 -0.0699354 -0.10303367 0.16336212 -0.014826358
-0.07575375 -0.027020097 -0.05341261 -0.026084185 -0.029144831 0.011597289 0.19748405 0.15191147
0.16654797 -0.44599062 0.09159177 -0.06769585 -0.06550542 -0.08492097 -0.027672129 0.03508651
-0.29482803 0.12986413 0.027258528 -0.26060888 -0.39459088 -0.025376476 -0.07260175 -0.0187787
0.0024148838 -0.01786495 -0.07228731 -0.13818716 -0.37552208 0.10525995 -0.32869086 -0.13508455
-0.028029166 -0.07001344 0.004872345 -0.0793675 -0.2773664 -0.45746326 -0.30043134 0.074546084
-0.052826043 -0.22309053 -0.053415854 -0.023993464 -0.01682615 0.05408402 0.08083459 -0.21974607
-0.58305186 -0.422034 0.2337389 0.087853156 0.1495979 -0.017140059 -0.0133231655 -0.09618387
0.16602772 0.06460847 -0.09661272 -0.47626942 0.10925077 0.3077634 -0.034316637 -0.051358864
-0.027346574 -0.0020726542 0.033696674 0.12785965 0.24958347 0.027992656 -0.11442989 -0.007676231
0.01567823 -0.017113602 -0.011042476 -0.027003976 0.023120143 0.0046089054 -0.014028446 -0.056781318
-0.052407917 -0.01863193 0.029758435 -0.0038808472 -0.06222082 -0.018754695 -0.05776046 -0.12827015
0.013914706 -0.039499957 -0.12594229 0.0032511577 -0.15191376 -0.12280897 -0.04382613 0.045618452
0.115501106 -0.23370476 0.06027337 0.1217137 0.46259242 -0.31037825 0.07755359 0.006180441
0.08887308 0.09443708 0.12274011 -0.31685802 0.033076413 -0.100237615 0.013808599 -0.11769797
-0.31676087 -0.07839956 -0.020103341 0.10158605 -0.30994585 0.17196742 -0.07308034 -0.03130628
-0.3768414 -0.43336242 -0.22010009 -0.019019585 0.016870301 0.0655834 -0.278373 -0.017774265
-0.50844073 0.299396 0.39866117 -0.4068657 -0.366554 -0.11576636 0.01790154 0.044887204
-0.34344667 0.075840384 0.16123693 -0.07138169 0.07852027 0.08610272 -0.28829265 -0.065374345
0.08427998 -0.023436882 0.043042406 0.087095164 0.5601061 -0.51113075 0.18861035 0.37304205
-0.20078833 0.023703894 0.048601456 0.23688498 -0.20937556 -0.12727112 0.22744298 0.13446987
0.050148256 -0.100079775 -0.15361139 -0.08653515 -0.09392817 0.06752429 -0.26606 0.031397305
0.197463 -0.040217403 -0.019572614 0.14381635 0.14046007 -0.058443975 0.010589117 0.1269829
0.07517036 -0.02534275 -0.024365429 -0.03147037 0.03792851 0.04890225 0.078051984 0.06603148
-0.08456974 0.013870173 -0.1728006 -0.18525147 0.024578435 0.019103438 0.058807805 -0.022711512
0.056509167 -0.05977958 -0.0659849 0.02226524 0.08936855 -0.26709697 0.20182332 -0.01689168
0.07530481 -0.09100793 0.12355128 -0.09525257 -0.075855754 0.085006796 -0.05767401 -0.022710731
-0.045612533 0.082213745 0.009619767 -0.13797593 -0.015901081 -0.02053669 -0.022988897 -0.095886566
-0.033625316 0.10114899 -0.17622894 -0.12530844 -0.40459237 -0.34286687 -0.04010541 -0.026041321
-0.021441039 0.002750226 0.03335467 -0.008141408 -0.32100546 -0.20878091 -0.19714037 -0.5046648
-0.082172185 -0.05209799 -0.020991137 0.1011493 -0.29627421 -0.21030651 -0.45812276 -0.35576212

lin1.bias f4 [100]
00000000: 0e68 fd3d 5ffd 723e cddb 663d 4e47 c7bd
00000010: 5d92 8cbb 73b2 b83c d2b4 0a3c 5687 36bc
00000020: cf87 5bbc b01a f33d ba76 f7b8 fd13 cd3b
00000030: 001b 033e 86ce b1bd a7e2 0dbe 1682 403b
00000040: 1795 0a3d 5d07 d2bc 6377 f0bc d354 97bb
00000050: a929 4d3c 60f3 3b3c 65a4 c2bd a0f3 8cbd
00000060: fd4b 86bd f40a cebb 6f50 e93c 5b92 0dbe
00000070: 43d3 083d 05dd e03b 35c8 d53d dc14 acbc
00000080: 5a73 683c 77ac cabd b662 a1bc 6528 cabd
00000090: d983 983b b225 bdbb da7b 273d d73b c7b9
000000a0: 381f 17bb f10c 99bd 96c9 64be ae5b 2cbd
000000b0: 4275 8dbe e0dc 87bc 9668 c03e d23e 81bc
000000c0: 85e0 27be 3f8e 193d a71a 08bd b433 8abc
000000d0: 21e3 dfbd d998 553e 0815 3ebd e30c 923e
000000e0: d8e6 90bd bb64 323e 1451 983c 8a64 b9bd
000000f0: 09d3 2ebc 1857 81be f57c 763d 2787 9fbe
00000100: 1d1f a9bc 4bc6 5bbe 3627 6bbd 86b8 213d
00000110: e5c9 e9bd 99ff acbc 5720 d03c 6ccf 1fbe
00000120: 390c a53d fabf 913e 802c 6f3e 80fd 9dbc
00000130: 3280 49bd 0a98 7a3c e3ca 0ebe 3236 7ebc
00000140: 0ca9 17bd 8096 253c e7a0 6c3e a91a 053c
00000150: 2804 403d 2eff 7ebe 0427 b5be 32d5 a3bd
00000160: ba53 92be a40d 0ebc 9587 7fbe 1614 c43d
00000170: 3d91 523e 30ec d8bc 2e79 633d b1db 6f3d
00000180: 6ba4 4b3d c421 e43d 06c7 033c 4d95 0abe
0.123733625 0.23729466 0.056361962 -0.09730397 -0.004289909 0.022546029 0.0084659625 -0.011140665
-0.0133990785 0.118703246 -0.00011799992 0.0062584863 0.12803268 -0.08681969 -0.13855992 0.0029374412
0.03383359 -0.025638277 -0.029353803 -0.004618266 0.01252214 0.011471599 -0.09504012 -0.06882405
-0.06557462 -0.006287927 0.028480737 -0.13825361 0.0334046 0.006862285 0.10438577 -0.02100604
0.014187658 -0.09896176 -0.01970039 -0.09870986 0.0046543893 -0.005772316 0.0408896 -0.00038000822
-0.002305938 -0.074731715 -0.22342524 -0.04207962 -0.27628523 -0.016584814 0.37579793 -0.015777025
-0.16394241 0.037489172 -0.033228543 -0.016870357 -0.10931993 0.20859088 -0.046406776 0.28525457
-0.0707528 0.17421238 0.018593349 -0.090523794 -0.010670432 -0.2526176 0.060177762 -0.311578
-0.020644719 -0.21462362 -0.05741044 0.039482616 -0.114154615 -0.021117972 0.025406046 -0.15606469
0.08058972 0.2846678 0.23356819 -0.019285917 -0.049194522 0.015295038 -0.13944583 -0.015515851
-0.03702645 0.010106683 0.23108254 0.008124032 0.046878964 -0.24902031 -0.3538133 -0.07999648
-0.28579503 -0.008670244 -0.24954064 0.095741436 0.20563217 -0.02647981 0.055535488 0.058559123
0.049717348 0.11139253 0.008043056 -0.13533516

lin2.weight f4 [10, 100]
00000000: 32d7 583d 9c69 e9be 4412 85bd 0089 a13e
00000010: b666 d0bd a2e8 e3be b981 853c 7a81 b4be
00000020: b597 ccbd 12c6 173e 2580 38bd 6524 cabd
00000030: 16e9 41bd 9a3a b13e a35f 29bf 6946 813d
00000040: ec82 b43e d5ed 24bd 85e8 e7bc bb2d 93bd
00000050: 766b 48bd ea90 183c d406 7e3d 0011 c03d
00000060: eb75 863e 91cd 843d 67a5 033d e17c d2be
00000070: e44f 07bf 23de 1a3e 433d f3be 9b0f 5fbd
00000080: 47fd b03e 9ab1 cb3e dfd7 a63e 073e a5be
00000090: 3a2d 823d 083f c53c e525 363e fc01 8bbd
000000a0: 88be 273e d6a0 993e e225 14bf 6455 c1bc
000000b0: f982 a3be 38a4 b13d 31d7 f3be eb67 87bd
000000c0: 91b6 2dbf 85dc 873e 2fee 89be 753e ee3c
000000d0: 3d98 683e 3e90 09bf c3b5 efbe 1052 54bf
000000e0: 3f53 af3e ca04 f8be f551 63be 1700 febe
000000f0: aec1 613d e747 66be 60cc 183e b341 76be
00000100: 7ec1 543a 29c9 88be 8cc5 6fbe 845c ce3e
00000110: e6fe 7fbe 0ea7 9c3d c44f 9bbe b6ca a6be
00000120: 5a6b a1be 04e6 3e3e 8506 e2bd 7807 98be
00000130: 7582 b83d 0bde 3fbf 341c 20be 33f2 833d
00000140: 0ebb 4ebd b3ff e13e f0b3 063f 477a 67bd
00000150: b281 bd3e 5fef 94be 767a cabc 6e48 753e
00000160: 1c6a aabe 888c 7e3e bc08 ccbe a8ec ad3e
00000170: edfd 1dbe 1458 be3c 0aa4 793e 0989 a5bd
00000180: 3bb7 66be 2b10 f2be 4421 21bd b41e a83d
00000190: f4d4 2d3f a31f 993e f3db 5a3e 64e9 90be
000001a0: d4c6 4c3d 0a00 4fbe cee8 6a3d 8ef1 173e
000001b0: 9e26 c1bb cee6 a7bd c3f4 f4be 0d94 2abd
000001c0: 3f53 b83e bd10 ff3d bf29 57be c417 81bc
000001d0: ce02 b93e 89b7 ccbb 98c3 9a3e 7697 69bd
000001e0: 3faa b1bd 1ee3 0d3d 6d4f d9be a655 e2be
000001f0: 1580 55be a6bf 563d 413c 413c 6e8e 41be
00000200: 6bd6 ba3d 8d85 a1be 3390 353e ceb0 0b3d
00000210: 4b92 733e 5f2c b8be 02ae 83bc 6a7d 9c3e
00000220: b405 3bbd 5343 90bd 896e 6f3b f402 91bc
00000230: a144 0ebe 0241 64be 68d3 08bf 45e1 5a3d
00000240: 00e6 14be 1977 723c 6f4d c63e 0ebf 043d
00000250: 2881 82bc 67d2 c33e e568 833d daba ad3d
00000260: 513a 18bf ad1c da3c 4c72 9cbe 404f 9c3e
00000270: a8b0 db3d f384 183e 429c f6be 6d3d 9ebd
00000280: 0aa4 a23d 610d 30bf dfaf a03d 9b8a 44be
00000290: 1c96 91bd 6140 813c 728d cfbd 3e12 6a3e
000002a0: ae8c 6e3d 895a 0a3e 5638 81be fb54 033e
000002b0: 0813 5b3e 1be7 b83e 89d2 3b3e 6144 bd3e
000002c0: 0a25 aa3c 87b7 233e 2511 673e 25c1 1cbd
000002d0: 7835 083d 0706 10bf b63c b73e d1a7 90bb
000002e0: ab9f 3c3e e497 21bf a71b 1abf 0a9a abbe
000002f0: 2869 53be 864d a2be 9c6b f0be e336 89be
00000300: fb83 373f e917 493d ca80 f13e 8fb4 2e3e
00000310: 0205 f63d aa24 b4be ae37 5e3d 8aa0 b9bd
00000320: 7670 d1bd 5fd1 c9bd 2750 e1bc 4b30 15bd
00000330: 9ecf 17bd 49a3 3e3e 7f15 b5bc 47f2 813e
00000340: 8d39 62bd f49a d83e caf1 92bd de40 d3bd
00000350: 05e2 213f 7146 c83e 87e7 763e f8e8 9bbd
00000360: b25d 323e b77a 97bd 3488 5dbd a485 aebd
00000370: 7e2e 92bc 234f 13bd 590b 2dbf e691 953e
00000380: 5ea2 54bd 6878 85bd d478 813e 2f9d 52bd
00000390: 9795 f43d f3ea 013e 60ad f93d ae0a 343d
000003a0: 559c cfbe 80d6 18be 7f34 fcbd c6a8 05bf
000003b0: 9494 43bd db0e 9ebd d81c 0fbf 900e 593d
000003c0: 064f 883e b4ba 813e 9eae 16be 9328 7c3e
000003d0: 040f 01bf 13e3 5a3c 4a41 93be 706b 93bd
000003e0: 551f 37bf 53ff 1bbf c720 6ebf e0f9 a73d
000003f0: 8d9d 47bf 1491 2a3e 9ba0 ffbe 2862 2abf
0.0529396 -0.45588386 -0.064976245 0.31549835 -0.101758406 -0.44513422 0.016297208 -0.35255033
-0.09989873 0.14821652 -0.045044083 -0.09870223 -0.04734143 0.34615022 -0.66161555 0.06312258
0.35256135 -0.040265877 -0.028309116 -0.07186457 -0.048930608 0.009311894 0.06201823 0.093782425
0.2626184 0.06484521 0.03214016 -0.411109 -0.5285628 0.15123801 -0.47507676 -0.054458242
0.34568235 0.39783937 0.32586572 -0.32273886 0.063562825 0.024077907 0.17787893 -0.06787488
0.16381276 0.3000552 -0.57870305 -0.023600288 -0.31935862 0.086739 -0.47625116 -0.06611618
-0.678567 0.2653543 -0.26939532 0.029082516 0.22714324 -0.5373572 -0.4681836 -0.8293772
0.342432 -0.48441154 -0.22199233 -0.49609444 0.055116348 -0.22488366 0.14921713 -0.240485
0.0008115991 -0.26715973 -0.23415202 0.4030496 -0.2499958 0.07649051 -0.30334294 -0.3257653
-0.31527215 0.18642431 -0.110364 -0.29693198 0.09009258 -0.74948186 -0.15635759 0.0644268
-0.050471358 0.44140396 0.5261831 -0.056513097 0.37013012 -0.29088876 -0.024716597 0.23953411
-0.3328408 0.24858296 -0.39850414 0.33969617 -0.15428896 0.023235358 0.24378982 -0.08082778
-0.22530834 -0.4727796 -0.039338365 0.08208981 0.67903066 0.2990695 0.21372966 -0.28303063
0.049994305 -0.20214859 0.057350926 0.1483824 -0.005894496 -0.081983194 -0.47842988 -0.0416451
0.36001012 0.124543644 -0.21012019 -0.015758403 0.36134952 -0.006247465 0.3022735 -0.05702921
-0.0867505 0.034640424 -0.4244341 -0.4420597 -0.2084964 0.052428864 0.011794151 -0.18901989
0.09122928 -0.31547204 0.17730789 0.03410416 0.23786275 -0.35971352 -0.016074184 0.30564433
-0.045659736 -0.07044091 0.003653439 -0.017701603 -0.13893367 -0.22290424 -0.5344758 0.05343749
-0.14540863 0.014798903 0.38730952 0.032408766 -0.015930727 0.38246462 0.064164914 0.08482905
-0.59463984 0.026625002 -0.30555952 0.30529213 0.10727054 0.14894466 -0.4816609 -0.0772656
0.07941444 -0.68770415 0.07846045 -0.19193499 -0.07108709 0.015777769 -0.101344004 0.22858521
0.05823963 0.13511099 -0.25238293 0.12825386 0.21393979 0.3611382 0.18342032 0.3696623
0.020769615 0.15987979 0.22565134 -0.038270134 0.033254117 -0.56259197 0.35788506 -0.0044145365
0.18420283 -0.6312239 -0.60198444 -0.3351596 -0.20645583 -0.3169977 -0.469571 -0.26799688
0.7168576 0.049095068 0.4716857 0.17061065 0.12012674 -0.35184222 0.05425232 -0.090638235
-0.10226528 -0.098543875 -0.02750404 -0.03642301 -0.037063234 0.18616976 -0.022104977 0.25380155
-0.055230666 0.4230572 -0.07175024 -0.10315107 0.63235503 0.39116243 0.24111758 -0.07612795
0.17418554 -0.07396453 -0.05408497 -0.08521584 -0.017844435 -0.035964143 -0.6759544 0.29212874
-0.051912658 -0.06517106 0.25287497 -0.051419433 0.119425945 0.12687282 0.12191272 0.043955497
-0.4054896 -0.14925575 -0.123147 -0.5221065 -0.047749117 -0.07717677 -0.5590339 0.052992404
0.2662279 0.25337756 -0.14715049 0.24624853 -0.5041354 0.013359803 -0.2876075 -0.071982265
-0.71532184 -0.6093647 -0.93018764 0.08201957 -0.7797478 0.16656905 -0.4992722 -0.66556025

lin2.bias f4 [10]
00000000: 1d77 98be 3404 cd3e 8cca 0bbe 9789 9f3d
00000010: d2d0 05bd 1004 0abe 8b27 c8bd d4ec 963d
00000020: f69d e23e 25e6 3cbe
-0.29778376 0.4004227 -0.13651484 0.07789915 -0.03266985 -0.13478112 -0.09773167 0.0736939
0.4426114 -0.18447168
